outputs/ncf_model_weights.pth (torch, 23245 bytes, 5 tensors)

net.0.weight f4 [64, 11]
0	0x4013ebf5	2.3112767
1	0xbc04daa1	-0.008108766
2	0x3e95f264	0.29286492
3	0xbf11e10f	-0.5698404
4	0x3e374af4	0.17899686
5	0xbe2f6c3e	-0.17131135
6	0x3fed2bde	1.8529012
7	0x3fdbd6dd	1.7174946
8	0x400aa9b0	2.166607
9	0x4027a23e	2.6192775
10	0xbffcc6d3	-1.9748176
11	0x40710ebd	3.7665246
12	0xbe0cdbbb	-0.13755696
13	0xbcb5a22d	-0.022172058
14	0xbe190ae1	-0.14945556
15	0xbcac0941	-0.021000506
16	0x3f0a252f	0.5396299
17	0x403a90e0	2.9150925
18	0x404b2bf4	3.1745577
19	0x404ea395	3.2287343
20	0x40734980	3.801361
21	0xbf3055cf	-0.68880934
22	0x3e4fbf19	0.20287742
23	0x3d4a98d0	0.04946214
24	0x3e519e7b	0.20470612
25	0xbe87fff2	-0.26562458
26	0xbd293991	-0.041314665
27	0xbd0e20eb	-0.03469936
28	0xbe12db43	-0.14341454
29	0x3da0a2da	0.078435615
30	0x3e691bfc	0.22764581
31	0xbe50544f	-0.20344661
32	0xbe1e3314	-0.15449172
33	0xc032da07	-2.7945573
34	0x3e6d9317	0.23200642
35	0xbe82d4c2	-0.25552946
36	0x3f05a3c1	0.52202994
37	0x3d82b495	0.063820995
38	0xbe884bfc	-0.2662047
39	0xbffec0a5	-1.990254
40	0xc0177eb4	-2.3671083
41	0xc0097c82	-2.1482244
42	0xc03190a6	-2.7744536
43	0x3fb344ce	1.4005373
44	0x4016eb79	2.358122
45	0x3d1dd056	0.038528763
46	0x3d8aed8b	0.06783589
47	0xbf0e466c	-0.55576205
48	0x3e42aeef	0.19012044
49	0xbee6b072	-0.45056492
50	0x3fe756a5	1.8073317
51	0x4004f5d9	2.0775054
52	0x400744b8	2.1135693
53	0x4010e0a3	2.2637107
54	0xbfe44541	-1.7833635
55	0x40691501	3.641907
56	0xbe18da9b	-0.14927141
57	0x3c862759	0.016376184
58	0x3d2bcf04	0.041945472
59	0xbccccf51	-0.0250012
60	0x3f729be7	0.9476914
61	0x401bd2fe	2.434753
62	0x402a46e6	2.6605773
63	0x4034da78	2.8258343
64	0x40679ee8	3.6190739
65	0xbf17b897	-0.59266037
66	0x4035f128	2.842844
67	0x3de7e102	0.11322214
68	0xbd5da8a0	-0.05411589
69	0x3db9f707	0.0908032
70	0x3e89c554	0.26908362
71	0x3ee3a901	0.44464877
72	0x4015d770	2.3412743
73	0x402f3265	2.7374508
74	0x4025fa45	2.5934002
75	0x40312954	2.7681475
76	0xbf359ed0	-0.70945454
77	0xbdb81075	-0.08987514
78	0x3e6f4fca	0.23370281
79	0x3e89e686	0.26933688
80	0xbdf26517	-0.118356876
81	0xbe979fda	-0.29614145
82	0xbdc39da0	-0.09551549
83	0xbe2a6367	-0.16639481
84	0x3e8379e4	0.25678933
85	0x3e91bb7c	0.28463352
86	0x3e1f6580	0.15566063
87	0xbcd2be68	-0.025725558
88	0xbe94d54d	-0.29068986
89	0x3cb17044	0.021659978
90	0xbdedbcf8	-0.116083086
91	0x3b5bd349	0.0033542684
92	0xbe109044	-0.14117533
93	0xbd00baaa	-0.031428017
94	0x3e2e6e22	0.170342
95	0x3e9870d2	0.29773575
96	0x3e7dd61a	0.24788705
97	0xbe27ee9e	-0.16399619
98	0x3e490ca1	0.19633724
99	0x4063f94f	3.5620916
100	0x3df7dee4	0.1210306
101	0x3e9266e9	0.2859414
102	0xbe0bebd0	-0.13664174
103	0xbc170655	-0.009217818
104	0x3e8421f4	0.25807154
105	0x401aed14	2.42072
106	0x40370dae	2.86021
107	0x4025a792	2.5883527
108	0x4057129c	3.3605108
109	0xbfaf0313	-1.3672813
110	0x40380739	2.8754408
111	0xbd1701e7	-0.03686705
112	0xbded8eef	-0.11599528
113	0x3f24b4ce	0.64338386
114	0xbce9ad11	-0.028524907
115	0x3f9f6630	1.245306
116	0x40202713	2.502385
117	0x403ca06b	2.9472911
118	0x402a0f54	2.6571856
119	0x4046ff12	3.1093183
120	0xbe90fd23	-0.28318128
121	0x3def00de	0.11670087
122	0x3e47cfe9	0.19512905
123	0xbce44a3f	-0.027867435
124	0xbc1d4faa	-0.009601513
125	0xbcae0062	-0.021240417
126	0x3e209dd4	0.15685207
127	0xbe32b6cb	-0.17452542
128	0xbc3abf7d	-0.011398193
129	0x3d67d2ee	0.056597643
130	0x3e0180a0	0.12646723
131	0x3e85d523	0.26139173
132	0xbe84f475	-0.25967756
133	0x3d76952b	0.06020085
134	0x3d84b10f	0.06479084
135	0xbe02057d	-0.12697406
136	0xbd65b297	-0.05607852
137	0xbd8e5ac1	-0.06950904
138	0xbe737ddf	-0.23778485
139	0xbe789c2f	-0.2427833
140	0xbc8b0ce2	-0.016973916
141	0x3e49dc77	0.19713007
142	0x3e981c60	0.29709148
143	0x405bc681	3.4339907
144	0xbe539955	-0.2066396
145	0xbdc301c8	-0.09521824
146	0xbe1af27d	-0.15131564
147	0x3b9b9e24	0.0047490764
148	0x3f33ca2e	0.70230377
149	0x401da268	2.4630375
150	0x4036be5b	2.8553684
151	0x4046ed06	3.1082168
152	0x4047211a	3.1113954
153	0xbf81b56e	-1.0133493
154	0x40553276	3.331205
155	0xbdfe6491	-0.12421525
156	0x3e8b85fa	0.27250654
157	0x3a225e2b	0.00061938417
158	0xbcd7510f	-0.026283769
159	0x3f363624	0.7117636
160	0x403bb2b5	2.9327824
161	0x403fba87	2.9957597
162	0x403c4bd1	2.9421275
163	0x4062dbed	3.5446732
164	0xbf65f5fc	-0.8982847
165	0x3ff8d738	1.944068
166	0xbe46eedc	-0.19427055
167	0xbdfa1a59	-0.12212057
168	0xbf6e0ab9	-0.9298511
169	0x3e887d2b	0.26657996
170	0xbf133d1b	-0.57515115
171	0x3f989dc1	1.1923143
172	0x3fabd787	1.3425149
173	0x3fe5f151	1.7964269
174	0x3fdef6c4	1.7419057
175	0xbfce36b4	-1.6110444
176	0x404ea60e	3.2288852
177	0xbe3978e5	-0.18112524
178	0xbe831742	-0.25603682
179	0xbdd2df6c	-0.102965206
180	0x3e8eecce	0.27915043
181	0x3f20964e	0.62729347
182	0x3ff1db30	1.8895016
183	0x402a9356	2.6652427
184	0x401877dd	2.3823159
185	0x402b820c	2.6798124
186	0xbf937286	-1.1519325
187	0xbdafb16d	-0.08578763
188	0x3c792e4e	0.015208794
189	0xbcea4c07	-0.028600706
190	0xbe6c2850	-0.23062253
191	0xbe4943f0	-0.19654822
192	0x3da18406	0.078865096
193	0xbd0533a7	-0.032519963
194	0xbc304c2e	-0.01076035
195	0x3d412d67	0.04716244
196	0x3d9aac04	0.075523406
197	0xbe1e4e4a	-0.15459552
198	0x4028cf23	2.6376426
199	0xbe67293a	-0.2257432
200	0xbcd9bd28	-0.026579455
201	0xbdfd6b8a	-0.12374027
202	0x3e6ee095	0.23327859
203	0x3d7305d5	0.059331734
204	0x3fcbb07f	1.5913237
205	0x401676a0	2.3509903
206	0x400ad22e	2.1690784
207	0x4021f40e	2.530521
208	0xbfcf182e	-1.6179254
209	0x3fd63ff9	1.6738273
210	0xbd71b9da	-0.059015132
211	0x3e2f739c	0.17133945
212	0xbfabdcd1	-1.3426763
213	0x3e9b7941	0.30365947
214	0xbe1ad1d1	-0.15119101
215	0x3f391a80	0.7230606
216	0x3fc6f093	1.5542167
217	0x3fd98076	1.6992328
218	0x3fd013fb	1.6256098
219	0xbfb36806	-1.401612
220	0x3fa0c5e4	1.2560391
221	0x3e4cc54d	0.1999714
222	0xbe889a4b	-0.26680216
223	0xbfb17864	-1.3864865
224	0x3ea4294f	0.32062766
225	0xbf25f731	-0.6483031
226	0x3f284933	0.65736693
227	0x3fa1a166	1.262738
228	0x3fc1fc5a	1.5155137
229	0x3fd1619a	1.6357911
230	0xbfcf03d9	-1.6173049
231	0x3f9bc405	1.2169195
232	0x3d9b2ff2	0.07577504
233	0x3cac13dd	0.021005565
234	0xbfbbdae9	-1.4676181
235	0x3e9c59df	0.30537316
236	0xbdd0a881	-0.101883896
237	0x3f736f68	0.9509187
238	0x3f8270b4	1.0190644
239	0x3fb82c7f	1.4388579
240	0x3fd0a337	1.6299809
241	0xbf3ff0f8	-0.74977064
242	0xbe59d066	-0.21270904
243	0xbc06d9b1	-0.008230613
244	0xbddcb6a9	-0.10777027
245	0xbe15236c	-0.14564294
246	0xbd0fedf8	-0.035139054
247	0x3a16ae28	0.0005747997
248	0xbdae0d2d	-0.08498607
249	0xbcaf3075	-0.02138541
250	0xbe83df16	-0.2575614
251	0x3d3c096b	0.04590742
252	0x3d9fd3fa	0.07804103
253	0xc01e4288	-2.4728107
254	0x3e8f2aef	0.27962443
255	0xbe9505cb	-0.29105982

net.0.bias f4 [64]
0	0x3fe9244d	1.8214203
1	0x40567e9e	3.351478
2	0x3e8681a1	0.26270774
3	0xc0291339	-2.6417983
4	0x3fe8ac32	1.817755
5	0x40485701	3.1303103
6	0x402133f0	2.518795
7	0xbe87dd90	-0.26536226
8	0x3d81b992	0.06334223
9	0x403f01ba	2.9844804
10	0x403a5fee	2.912105
11	0x3cc47ea5	0.02398617
12	0xbd17ed88	-0.03709176
13	0x4044ead9	3.076834
14	0x403aabc8	2.9167347
15	0x3fb1edb8	1.3900671
16	0x40275826	2.6147552
17	0x3e6c29a4	0.2306276
18	0x402178a5	2.5229886
19	0x3fca0b88	1.5784769
20	0x3f9dd935	1.2331911
21	0x3f8fff6b	1.1249822
22	0x3cc67010	0.024223357
23	0xc0305e69	-2.7557623
24	0x3e35c82d	0.17752142
25	0x4040a254	3.0099077
26	0x4015c5e9	2.3402045
27	0x405171e7	3.272577
28	0x3f119c9c	0.5687959
29	0xc020b223	-2.5108726
30	0x3dc98259	0.09839315
31	0x3fb01d83	1.3759006
32	0x404a8a8b	3.164706
33	0x3fae0381	1.3594819
34	0x40589b71	3.3844874
35	0xbe0e8745	-0.13918789
36	0x3fe94871	1.8225232
37	0x3e66e9c5	0.22550113
38	0x3fe2f282	1.7730258
39	0x3e455afa	0.19272986
40	0xbcb6b9ab	-0.02230533
41	0x3de695b4	0.11259022
42	0xbe2516c8	-0.16121972
43	0x4005c726	2.09028
44	0x3fe479ae	1.7849634
45	0x3f2b0bf6	0.66815126
46	0x3fb37ecd	1.4023072
47	0x40561e02	3.3455815
48	0x40177923	2.3667686
49	0x40193e1f	2.3944166
50	0x3e3c5fdc	0.18395942
51	0x3f9562b8	1.1670752
52	0xbe45d8b0	-0.19320941
53	0xc01bfe5e	-2.4374003
54	0x40303884	2.7534494
55	0x401f5724	2.4896936
56	0x3f9d6fee	1.2299783
57	0x405fa9dc	3.4947424
58	0xbf9ffe74	-1.2499528
59	0x3fc2b67c	1.521194
60	0xbe2e21bf	-0.1700506
61	0x40446066	3.0683837
62	0x3e3feeb2	0.18743399
63	0x40531918	3.2984066

net.3.weight f4 [64, 64]
0	0xbe92bb2c	-0.28658426
1	0xbf0fe6b6	-0.5621141
2	0xbd89e1c6	-0.06732516
3	0x3ede46d0	0.434134
4	0xbeb22792	-0.34795815
5	0xbda2e08a	-0.07952984
6	0x3da3b6a0	0.07993817
7	0x3d8d6970	0.06904876
8	0xbdf2b366	-0.11850624
9	0xbebecb06	-0.3726427
10	0x3e2e81f0	0.17041755
11	0xbdcdd9c2	-0.100513
12	0x3dca773e	0.09886025
13	0xbe543acc	-0.20725554
14	0xbe1f858e	-0.15578291
15	0xbe01f0cb	-0.12689511
16	0x3e3a828f	0.18213867
17	0x3d6371f0	0.05552858
18	0x3cbc6510	0.02299741
19	0xbe73a997	-0.23795162
20	0xbe6ef4a2	-0.23335508
21	0xbd521f97	-0.051299658
22	0xbd80e5c6	-0.06293826
23	0x3f180cbb	0.59394425
24	0x3dc36e7e	0.09542559
25	0xbdb92a3d	-0.090412594
26	0xbeca25d6	-0.39481992
27	0xbd8c76b6	-0.0685858
28	0x3d440653	0.047857594
29	0x3f40abe5	0.7526229
30	0xbc5adb40	-0.013357937
31	0xbd3b5984	-0.045739666
32	0xbc5829cb	-0.013193558
33	0x3d7280d0	0.059204876
34	0x3d2d184b	0.042259496
35	0x3e002891	0.12515475
36	0xbcce72a4	-0.02520115
37	0xbca908b0	-0.020634025
38	0xbeaa681a	-0.33282548
39	0xbc92a470	-0.017900676
40	0x3db87eb1	0.090085395
41	0x3b257300	0.0025245547
42	0x3dc8fb12	0.09813513
43	0xbe96b882	-0.29437643
44	0xbe8e593e	-0.2780246
45	0x3df7304c	0.12069759
46	0x3dbd137c	0.09232232
47	0x3d021dcc	0.031766698
48	0x3e8abc6d	0.27096882
49	0xbe575d91	-0.21031787
50	0x3d6ad2aa	0.05732981
51	0x3d8c57bb	0.06852671
52	0x3daab72a	0.08335717
53	0x3f4ff3e4	0.8123152
54	0x3e36efb7	0.17864881
55	0x3e2ee340	0.17078876
56	0x3e7785bb	0.24172108
57	0xbf1e53d3	-0.61846656
58	0xbe55810d	-0.2085001
59	0xbea126ee	-0.31475013
60	0xbb794e00	-0.0038040876
61	0xbeeaca33	-0.4585739
62	0xbc94ebb8	-0.018178806
63	0xbf10a753	-0.56505316
64	0xbe81d28e	-0.25355953
65	0xbf3c3589	-0.7351919
66	0x3d723b3c	0.05913852
67	0x3ed5893e	0.4170627
68	0xbe9ec3c0	-0.3100872
69	0xbc9a4903	-0.018833643
70	0x3e7b16f8	0.2452048
71	0x3d90ab3a	0.07063909
72	0x3d54a1b4	0.051912025
73	0xbeba3d54	-0.36374915
74	0x3e72654f	0.23671459
75	0x3ce717c8	0.028209582
76	0x3dcaad44	0.09896329
77	0xbe45b48c	-0.19307154
78	0xbe808293	-0.2509962
79	0xbe525b16	-0.20542559
80	0x3d022d92	0.03178174
81	0x3de0855c	0.10962936
82	0x3de9204c	0.11383113
83	0xbd99a79a	-0.075026706
84	0xbe04b258	-0.12958658
85	0x3d19dc2b	0.037563484
86	0xbd410c70	-0.047131002
87	0x3f74dd15	0.95649844
88	0xbdba343e	-0.09091996
89	0x3b2a1874	0.0025954517
90	0xbeb86476	-0.36014146
91	0xbc830f54	-0.01599852
92	0x3da69415	0.08133713
93	0x3f33d3c5	0.7024501
94	0x3d7eb054	0.06217988
95	0xbe2c3cd6	-0.16820082
96	0x3b7038cd	0.003665495
97	0xbd21ffe1	-0.039550666
98	0xbe27e42a	-0.16395631
99	0x3e71b1da	0.23603001
100	0x3d92f749	0.07176072
101	0x3da12c3a	0.07869764
102	0xbe6a793e	-0.22897813
103	0xbdc90156	-0.09814708
104	0x3df78307	0.12085538
105	0x3c0f3e00	0.008742809
106	0x3d409c30	0.047023952
107	0xbe834981	-0.25642017
108	0xbe1679e0	-0.14694929
109	0x3e75f115	0.24017747
110	0x3c8777c4	0.0165366
111	0xbcb77818	-0.022396132
112	0x3e52b664	0.20577389
113	0xbe7a3737	-0.24435125
114	0x3e2d5e11	0.16930415
115	0x3e5ade0a	0.21373764
116	0x3de77414	0.11301437
117	0x3f4a28d6	0.7896856
118	0x3e19ab4d	0.15006752
119	0x3dca4163	0.09875753
120	0x3e0d3dfc	0.13793176
121	0xbf33e6d1	-0.7027407
122	0xbddf65fe	-0.10908125
123	0xbe1b31c6	-0.15155706
124	0xbca2d838	-0.019878492
125	0xbf06a655	-0.5259755
126	0xbd8fdb6c	-0.07024273
127	0xbf388c4a	-0.72089064
128	0xbf738202	-0.9512025
129	0xbfd6f022	-1.6792033
130	0xbd0d862c	-0.034551784
131	0x3fed5c54	1.8543801
132	0xbf8ae075	-1.0849749
133	0xbfba9261	-1.4575921
134	0xbec15c14	-0.37765563
135	0xbdf96220	-0.12176919
136	0x3d4a5238	0.049394816
137	0xbf54a4f3	-0.8306419
138	0xbf9be8cb	-1.2180418
139	0xbdca4c5e	-0.09877847
140	0x3daa82de	0.08325742
141	0xbfe3e6f0	-1.7804852
142	0xc007af6d	-2.1200821
143	0xbf484c52	-0.78241456
144	0xbd9d4303	-0.07678797
145	0x3de3ac8c	0.11116895
146	0x3df0f97b	0.117663346
147	0xbf43f4e8	-0.7654557
148	0xbf0fb59d	-0.56136495
149	0xbed88262	-0.42286974
150	0x3db73c8e	0.08947097
151	0x402fb8ad	2.7456467
152	0xbce3fb38	-0.027829751
153	0xbfc4b738	-1.5368414
154	0xbfac617f	-1.3467253
155	0xbfd1be9c	-1.6386294
156	0xbf2bb91e	-0.6707934
157	0x401ff49b	2.4993045
158	0x3d0e1030	0.034683406
159	0xbf0fc0d9	-0.5615364
160	0xbfd0fec5	-1.632775
161	0xbf2dd785	-0.6790698
162	0xbfa27379	-1.269149
163	0x3f5ca144	0.8618357
164	0xbf6c15e3	-0.92220896
165	0xbdb0183c	-0.08598372
166	0xbf6b7662	-0.9197751
167	0x3c2f4f40	0.010700047
168	0x3f39625b	0.72415704
169	0x3dbbfbbc	0.09178874
170	0x3d777bb0	0.060420692
171	0xbf731d15	-0.9496625
172	0xbf79854b	-0.97469014
173	0x3e266745	0.16250332
174	0x3f13ac7a	0.57685053
175	0xbf8bef3f	-1.0932387
176	0xbe006d35	-0.12541659
177	0xbf5391c5	-0.826443
178	0x3c9cfc2b	0.019163212
179	0x3ea13fbc	0.31493938
180	0xbdc01384	-0.09378722
181	0x402697c1	2.6030123
182	0xbef2dce0	-0.4743414
183	0xbf55528a	-0.8332907
184	0x3f24e983	0.6441881
185	0xc008fb47	-2.1403368
186	0x402c7cf0	2.6951256
187	0xbf3f436f	-0.7471227
188	0x3c550200	0.013000965
189	0xc016c3a0	-2.35569
190	0xbd9523c4	-0.072822124
191	0xc0289f27	-2.634714
192	0x3ec48f86	0.3839075
193	0x3f8317f0	1.024168
194	0x3de9f13c	0.11422965
195	0xbf5e4271	-0.8682013
196	0x3f15bcfa	0.5849148
197	0x3f27c7a8	0.65539026
198	0x3eac08dc	0.3360051
199	0x3db183fc	0.08667752
200	0x3d9a7380	0.07541561
201	0x3f6ac88d	0.91712266
202	0x3ef54010	0.47900438
203	0xbd214c38	-0.03937933
204	0x3be96d60	0.007123634
205	0x3f187c26	0.59564435
206	0x3f7a223f	0.97708505
207	0x3ebdd297	0.3707473
208	0x3f01aa95	0.5065091
209	0x3dea473e	0.114393696
210	0x3ee4d4dd	0.44693652
211	0x3ea11433	0.31460723
212	0x3eb55283	0.35414514
213	0x3ea09391	0.31362584
214	0x3d39b854	0.045341805
215	0xc0047795	-2.0697987
216	0xbd826bbe	-0.063682064
217	0x3f325f72	0.6967689
218	0x3f3a8915	0.7286542
219	0x3f678208	0.90432787
220	0x3e4c8bff	0.1997528
221	0xbfcd2f13	-1.6029991
222	0xbcd847a8	-0.026401356
223	0x3ec85a2c	0.39131296
224	0x3f26b11a	0.65113986
225	0x3ec334d1	0.38126233
226	0x3f423b4d	0.75871736
227	0x3e82be65	0.25535884
228	0x3ebd2d8f	0.3694882
229	0xbc82eab8	-0.015981063
230	0x3efd36d2	0.49455887
231	0x3dd8c256	0.10583942
232	0x3e09389c	0.13400501
233	0x3c68d290	0.014210358
234	0x3da456aa	0.08024342
235	0x3f1b66f8	0.6070399
236	0x3ee9b972	0.45649296
237	0x3e394cb5	0.18095668
238	0x3ebee649	0.3728507
239	0x3f1fc27d	0.6240614
240	0x3e97aa95	0.2962233
241	0x3f378623	0.7168905
242	0x3e51c514	0.20485336
243	0x3ea66e29	0.3250592
244	0xbd3543c8	-0.044254094
245	0xbfd857e3	-1.6901821
246	0x3ea5c26d	0.32374898
247	0x3f00df79	0.5034099
248	0x3e9e5728	0.3092587
249	0x3f9ca6f6	1.2238452
250	0xc01f35ec	-2.4876661
251	0x3e9f7462	0.3114348
252	0x3b56a240	0.0032750517
253	0x3f984e3c	1.1898875
254	0x3d0cf020	0.03440869
255	0x3f95ad77	1.1693562

net.3.bias f4 [64]
0	0xbffe33f8	-1.985961
1	0xc00e8e43	-2.227433
2	0xbff0a3cc	-1.8799987
3	0x40142831	2.314953
4	0x401a76ed	2.4135087
5	0x401a4383	2.4103706
6	0x4015eec5	2.3426983
7	0xbfe3ba87	-1.7791299
8	0x40056c65	2.0847409
9	0x40369feb	2.8535106
10	0x400debb8	2.2175121
11	0xbfff4f79	-1.9946128
12	0x403f23a4	2.9865503
13	0xc007e7ab	-2.123515
14	0x40168158	2.3516445
15	0xbfe129d9	-1.7590896
16	0xbcb2a5f3	-0.021807646
17	0xc0066b3b	-2.1002948
18	0xc0010317	-2.0158136
19	0x4013f52f	2.3118398
20	0x400379ee	2.054317
21	0x3d9854b8	0.07438034
22	0xc008d339	-2.137892
23	0x4004962d	2.071666
24	0xc00434ee	-2.0657306
25	0x400c257b	2.1897876
26	0x4001340a	2.0188012
27	0xbffd30f5	-1.9780566
28	0xbffad884	-1.9597325
29	0x400bfa28	2.1871433
30	0xbff56401	-1.9171144
31	0x400754de	2.114555
32	0xbff61708	-1.9225779
33	0x40072624	2.111703
34	0x4011a669	2.2757819
35	0x404143e5	3.019769
36	0xc0122271	-2.2833521
37	0x4011223a	2.267714
38	0xc006d2b4	-2.1066103
39	0x40170644	2.3597574
40	0x40161af8	2.345396
41	0xbfe937f7	-1.8220204
42	0x400712be	2.110519
43	0xbff7f148	-1.9370508
44	0xbe09c48b	-0.13453881
45	0x400d65a6	2.2093291
46	0x4009b2f5	2.1515477
47	0x3ffd69d5	1.9797922
48	0x3dabaf66	0.08383064
49	0x40008bdd	2.0085366
50	0xc01f163d	-2.4857323
51	0xc00b4dc2	-2.176621
52	0x4008f940	2.140213
53	0x4013df0f	2.3104894
54	0x40032fe3	2.0497978
55	0xc003365a	-2.0501924
56	0x4009771e	2.1478953
57	0xbee3dfd8	-0.44506717
58	0xc0078c7e	-2.11795
59	0x400eaae1	2.2291796
60	0x40107848	2.2573414
61	0xbe796e38	-0.24358451
62	0xbffdd326	-1.9830062
63	0x400cef71	2.2021143

net.6.weight f4 [1, 64]
0	0xbf76f8ab	-0.9647319
1	0xbf6e3d6a	-0.9306246
2	0x407d6cec	3.959773
3	0x3f19da8c	0.600991
4	0x3f30843b	0.6895177
5	0x3f27ba90	0.65519047
6	0x3f368685	0.7129901
7	0xbf8b5e2c	-1.0888114
8	0x3f4a7422	0.79083455
9	0x4030655c	2.7561865
10	0x3f2ed998	0.6830077
11	0xbf77e05a	-0.9682671
12	0x402e3212	2.721806
13	0xbf549dd4	-0.83053327
14	0x3f27fb72	0.6561805
15	0xbfdc1002	-1.7192385
16	0xbdac9ad0	-0.08427966
17	0xbf66dfbf	-0.9018516
18	0xbf6c8c98	-0.9240203
19	0x3f28696f	0.6578588
20	0x3f3ab943	0.72938937
21	0xbc8a094d	-0.016850138
22	0xbf66b109	-0.90113884
23	0x3f2d9656	0.6780752
24	0xbf79cff7	-0.97582954
25	0x3f34b433	0.7058746
26	0x3f4b5052	0.79419434
27	0xbf4f5e93	-0.81003684
28	0xbf5cecee	-0.86299026
29	0x3f33bcb0	0.7020979
30	0xbf6dd248	-0.9289899
31	0x3f418933	0.75599974
32	0xbf6db67e	-0.92856586
33	0x3f4b80c7	0.79493374
34	0x3f2441a3	0.64162654
35	0x4030732a	2.757029
36	0xbf5b5d95	-0.8568967
37	0x3f20acf4	0.62763906
38	0xbf6791a7	-0.9045662
39	0x3f345e97	0.7045683
40	0x3f218162	0.6308805
41	0xbf5f8e36	-0.8732637
42	0x3f35ed33	0.7106506
43	0xbf752abd	-0.9576834
44	0xbd3e0d05	-0.046399135
45	0x3f34d110	0.70631504
46	0x3f3af623	0.73031825
47	0x3f43cb88	0.7648244
48	0xbd311cb2	-0.043240257
49	0x3f4081e9	0.7519823
50	0xbf73dd64	-0.9525969
51	0xbf5f5ea6	-0.872538
52	0x3f32e108	0.6987462
53	0x3f2fd981	0.6869126
54	0x3f40a863	0.7525694
55	0xbf738ed5	-0.9513982
56	0x3f26cf12	0.65159714
57	0xbf60094f	-0.87514204
58	0xbf76fcfe	-0.96479785
59	0x3f33a211	0.7016917
60	0x3f3f8939	0.7481876
61	0xbec11622	-0.37712198
62	0xbf640943	-0.8907663
63	0x3f3ee39d	0.7456606
