outputs/ncf_model_weights.pth (torch, 23501 bytes, 5 tensors)

net.0.weight f4 [64, 12]
00000000: 277d 4fbe 6665 febb 2b90 8f3e 150b 44be
00000010: fc82 463d 0bea e43d 397b 443d 8aab 5bbe
00000020: ba8e 2a3d fc2a 7b3e 7a5e 08be 8afd 263e
00000030: 90dc 06be 9de6 adbc f6ed 1d3e 7795 b73a
00000040: c300 6bbe 4ab6 193e bc74 333e 60d8 1c3e
00000050: cd47 5b3e 22df 033e f0e6 463e c7f8 413d
00000060: eab1 483e ba35 82be 3d05 22bd e813 08bd
00000070: b99a 0cbe 21cc 993d 672f 5f3e cc75 47be
00000080: ea76 17be 6658 bfbd d875 633e bf85 7abe
00000090: d3da 903e 59a9 34be c70e 30bd 5e1d 12bd
000000a0: 82ee edbd eb5b 4d3e 3b76 4bbc ce2d 35be
000000b0: d53f 23be 6018 173d 6a03 853d e8c0 21be
000000c0: b6a8 493d 0f2e 3abe 3e3c 97bb 3f58 003e
000000d0: cb67 c7bc b483 a9bd 1ac7 1fbc c527 cf3d
000000e0: b358 12be 4071 803c 42fa 413e 8428 25bb
000000f0: f49c 423e 418b 85be 58c1 76be b03a 06be
00000100: cc43 1f3e 0c65 323e 8cb1 5bbe d601 de3d
00000110: d738 54bd 2a54 ab3d 2eff 8a3e 2117 8fbe
00000120: e0fb 503d 187d 313e a1df c53c 37f9 30be
00000130: 58c2 59bd 673a b0bd 9c1f 653e 9707 843e
00000140: 4f13 e8bd 592b 91be ac49 bbbd 6522 23be
00000150: f4c1 7b3e 3287 8b3e 4a9c 183e 94c5 c9bc
00000160: 387f 8ebe 6ce2 a93c f19d e3bd 7b77 523b
00000170: b768 0abe 5f7f f6bc 1301 273e 6cf3 913e
00000180: a007 733e 62c8 20be 757d 403e 564a 403e
00000190: 6e51 ed3d 532b 8c3e 722c bc3c 731e 0ebd
000001a0: 252d 27be 3d9b 83bd a116 d23d 22b6 50be
000001b0: 3040 743d 1fb4 9fbd f8ef 6cbe 1f94 10bd
000001c0: dd71 e3bd e8ee 833e bbb5 0dbe 355b 903e
000001d0: 4319 2a3e 1dc3 903e d143 93ba c4ce 1abc
000001e0: b44c 7bbe 0dd4 e43d 394e 3f3e 3092 dabc
000001f0: 2f9d 16bc ff97 a6bc 52c7 193e 0d1b 2bbe
00000200: 2fcc 32bc 5cf4 5d3d 71fa f73d 8a22 803e
00000210: da96 7ebe bf15 6c3d cc15 7e3d daf8 f8bd
00000220: 31eb 5bbd 474b 88bd 2320 69be aa06 6ebe
00000230: 6b21 85bc 7244 413e 92a2 913e a0f9 253d
00000240: 2f97 4abe 77b4 babd a8ea 653d 8b51 8b3d
00000250: 86f5 373d 72cb e5bd f0e9 833d fc33 803e
00000260: f55e 4cbe 73c0 a7bd 6b0f 31be 0690 f3bd
00000270: 5c95 853e 670d 053e 83a5 8cbc 3902 1fbc
00000280: 303c 703e d760 bc3d 4dde 00bd 3aee b03d
00000290: aa3d 2bbd a5ef bd3c c176 3ebe 9074 efbd
000002a0: 3d81 66be 256f 2b3e 302a 07be af38 f83c
000002b0: fed5 1ebe 96d6 db3c 8052 0fbe 2eac 003e
000002c0: b98a 873e 7f93 31be 1605 7bbe 0183 c73c
000002d0: 46ee 6d3e 2ba4 8f3e fb88 35be f164 803e
000002e0: e89d 4ebd d97b 11be c608 033c 9b36 a8bd
000002f0: 9092 6e3c 8152 e0bc 831a 62be 69b2 40be
00000300: b7a3 9a3d dc0f ffbc c5ca 28bc 07f4 383d
00000310: 4c16 943d f890 17be 99a7 b9bd e151 5dbe
00000320: 1878 d0bc b8bd 06bd 339a 363e 09cb a03d
00000330: 6a71 e7bd 1d6c 373e bc71 acbd 46db 23bd
00000340: db87 3abe 7c63 2e3e 5c6f 67bd 6bfb 273e
00000350: fcd2 84be 85b5 853e a16f 813e 7fbc 62be
00000360: 7f06 913e 6f6d 173e 44b2 3f3d 411b 273e
00000370: 8110 c2bd 920d 443e 82c9 82be 7959 8cbe
00000380: f691 823e 5600 66be d929 62be 2512 763d
00000390: 9d72 d83b 0212 023e ac4b 9dbd ecc8 5f3e
000003a0: 9c94 943d 72c0 a43c 387d 15be b8ce 8a3e
000003b0: bdf7 9abd 643c b43b 5324 21be 0f3c 47bd
000003c0: f35e 583e d66d 773e 848a 50be 011c 01bc
000003d0: 2e51 d3bd 03ca 0ebe 54cd 09bd f143 103a
000003e0: 40a4 a6bd 20bb a7bc ba83 7cbe 1108 343d
000003f0: 1006 993d dc6f 6d3e 9812 893e a5ad 8ebe
-0.20262586 -0.0077635525 0.2803968 -0.19144852 0.04846476 0.11177453 0.047969077 -0.21452156
0.04164002 0.24528116 -0.1331729 0.16307655 -0.13170075 -0.021228129 0.15422806 0.0014006336
-0.2294951 0.15010944 0.17525 0.15316916 0.21414109 0.12878087 0.19424033 0.047356393
0.19599119 -0.25431615 -0.039555777 -0.03322211 -0.13730897 0.075096376 0.21795426 -0.1947853
-0.14791456 -0.093430325 0.22212923 -0.24465083 0.2829195 -0.17642726 -0.042982843 -0.035672538
-0.116177574 0.20054595 -0.012418325 -0.17693254 -0.15942319 0.03688848 0.06494792 -0.15796244
0.04923316 -0.18181632 -0.0046153357 0.12533663 -0.024341485 -0.082770735 -0.009752059 0.10115007
-0.14291649 0.015679002 0.18943122 -0.002520115 0.19005185 -0.26082805 -0.24097192 -0.13108325
0.15553206 0.17421359 -0.21454448 0.10840194 -0.05181202 0.083656624 0.27147812 -0.27947333
0.051021457 0.17332876 0.024154486 -0.17282568 -0.053163856 -0.08604889 0.2237534 0.2578704
-0.11331808 -0.28353384 -0.09144911 -0.15931089 0.24585706 0.27251583 0.1490337 -0.024630345
-0.27831435 0.02073785 -0.11114109 0.0032114673 -0.13516508 -0.030090032 0.16309004 0.2850603
0.23733377 -0.1570144 0.18797858 0.18778357 0.11587797 0.27376804 0.022970412 -0.034697007
-0.16325815 -0.06426094 0.10258222 -0.20381978 0.059631526 -0.07798027 -0.23138416 -0.03529751
-0.11105702 0.25768209 -0.13838856 0.28194585 0.16611199 0.2827386 -0.0011235421 -0.009448711
-0.24540979 0.11173258 0.18682183 -0.026681036 -0.009192749 -0.02033615 0.15017441 -0.16709538
-0.010912939 0.054188117 0.12108315 0.2502635 -0.24862233 0.057637926 0.062032506 -0.1215684
-0.053691093 -0.06654983 -0.22766165 -0.2324473 -0.016251286 0.18873766 0.28444344 0.040521264
-0.19784234 -0.09116452 0.05613199 0.068026625 0.044911884 -0.11220445 0.064411044 0.2503966
-0.19958098 -0.08191004 -0.17291038 -0.11892705 0.26090515 0.12993394 -0.017168766 -0.00970512
0.2346046 0.09198158 -0.031462003 0.08639188 -0.041806854 0.02318556 -0.18599989 -0.116921544
-0.22510238 0.16741617 -0.13199687 0.030300466 -0.15511319 0.026835721 -0.13996315 0.12565681
0.26473024 -0.17341422 -0.24513659 0.02435446 0.23235425 0.28054938 -0.17728035 0.25077012
-0.05044356 -0.142074 0.007997697 -0.0821354 0.01456131 -0.02738309 -0.22080426 -0.18818058
0.075507574 -0.031135492 -0.01030225 0.045154598 0.07230815 -0.14801395 -0.0906517 -0.21613266
-0.02544789 -0.032895774 0.1783226 0.07851226 -0.11300929 0.17912336 -0.084201306 -0.040004037
-0.18215887 0.17030138 -0.056502685 0.16404502 -0.25942218 0.2611505 0.2528048 -0.22142218
0.2832527 0.1478784 0.046800867 0.1631899 -0.09475804 0.19145802 -0.25544363 -0.27412012
0.25501984 -0.22461066 -0.22086276 0.060075898 0.00660546 0.12702182 -0.07680449 0.2185399
0.072549075 0.020111296 -0.14598548 0.2711084 -0.075667836 0.005500363 -0.15736513 -0.04864126
0.2112997 0.24162993 -0.2036534 -0.007880212 -0.10318218 -0.13944249 -0.03364308 0.0005503288
-0.08136797 -0.02047497 -0.24659625 0.043953005 0.074718595 0.23187202 0.26771998 -0.27866855

net.0.bias f4 [64]
00000000: 1407 9dbd 1352 e2bd 5b36 1fbe f863 debd
00000010: abb3 35bc 6274 18be 005e 81be d249 233e
00000020: 941f 8cbe 0600 2abe 2136 9d3d 21b2 6dbe
00000030: 90c9 693e 32b0 8dbe 3174 b13d 7284 0a3e
00000040: 626d 7f3e c350 033e c5ac 8dbe 292f 7abe
00000050: a112 34be 9b7f dc3c 8cd6 14be f707 91be
00000060: 3caa 613e 4556 3fbe c280 09bd 3184 603d
00000070: 289d 3b3d 818e 843e b2b6 fcbc fc5d 4d3e
00000080: 9c48 d4bc 45b6 0b3d a80d 3d3e f3da 47be
00000090: bcf9 8fbe ff2e 43bd 89ab 6ebe f653 29bd
000000a0: f031 82be 570b bf3b 9412 683e f710 1ebe
000000b0: 7db4 1ebe da80 51be 8a0d 2dbe 8e69 543d
000000c0: 73a7 3c3e 61c3 62be e50b 83be 203b 72be
000000d0: 1120 453e a60c 993d 2847 ad3d c8b1 583e
000000e0: 6290 3d3e ddfc 823d cf30 11be 118a 80be
000000f0: a6ef 0fbc 3ac9 1a3e 7af5 2bbd 0958 613e
-0.07667366 -0.11050811 -0.15548079 -0.10858911 -0.011090199 -0.14888147 -0.2526703 0.15946129
-0.27367842 -0.16601571 0.0767634 -0.23212482 0.22830796 -0.2767349 0.0866474 0.13527086
0.2494407 0.12823777 -0.27670875 -0.24432053 -0.17585231 0.026916316 -0.14534968 -0.2832639
0.22037596 -0.18685253 -0.03357006 0.054813568 0.045804173 0.25889972 -0.030848835 0.20055383
-0.02591353 0.034109373 0.1846224 -0.19517116 -0.2812022 -0.04765224 -0.23307623 -0.041339837
-0.25428724 0.0058302092 0.22663337 -0.15436159 -0.15498538 -0.20459309 -0.16899696 0.051858477
0.18423252 -0.22144844 -0.25595012 -0.23655367 0.19250514 0.074731156 0.084608376 0.21161568
0.18512109 0.06395886 -0.14178775 -0.25105336 -0.008785164 0.15115824 -0.04198215 0.22006239

net.3.weight f4 [64, 64]
00000000: 8869 ae3c 8443 c8bd 3c3b 723d 10af afbc
00000010: 00f8 d1bb f833 be3c 367d fc3d 3aab 903d
00000020: b4a1 543d 5eac 94bd b81e 293d c817 e73c
00000030: 44ad ca3d 06f2 c5bd a0af fabc ae6d 8cbd
00000040: 3ef3 8abd 5c85 e03d 4435 073d 005b 673b
00000050: 38bd 4fbd ec60 893d 700c 41bd d00e f33c
00000060: 3e34 babd c6ed ad3d 0039 3abc 707a a53d
00000070: e0d3 123d 0c51 03bd 54b0 7e3d bed4 c6bd
00000080: 2086 143d fefd f9bd ec6a e2bd 08c5 983c
00000090: 70e5 ce3c 3a2c a13d 0026 dabc 5601 c9bd
000000a0: c69d 90bd 003e 0f3c 309c 403d c880 9abc
000000b0: 30d2 373c 6881 c93d 9c2a c9bd 00be f0bb
000000c0: 5882 343d c8cc 02bd 2806 ff3c ca9a e33d
000000d0: 1474 e73d 2293 b3bd 68da ff3c a043 623c
000000e0: 40d6 4cbc 40f1 b73b 203b 4e3c 48b7 ad3c
000000f0: 38d8 a2bc e04e c03d 6cdb 8fbd 20f6 3d3d
00000100: a853 623d ba7e c13d 2c86 0dbd 8e8d dabd
00000110: c8cf bcbc 6020 eabd 60f3 613c 2062 f9bd
00000120: 3852 4a3d 8839 d43c 5641 93bd 5e4c cabd
00000130: de82 aa3d dc89 c43d 20c6 a2bb 004b cb3b
00000140: b4c1 bcbd 8cac e33d 386d 223d 7e57 a7bd
00000150: f030 b43d 38a5 ed3c 8e3c b73d 30fc e9bc
00000160: 38fb e3bc fa4e 803d 0259 d5bd 5c35 65bd
00000170: e06a 5cbc 3490 513d 3010 0e3d 8cc8 67bd
00000180: 6adc cebd be3b d5bd ac8e 723d d49c ddbd
00000190: 10f5 aebc 3c18 b0bd b869 2b3d 404f 2f3c
000001a0: e082 8a3b bcfb bb3d b07b 773d 0060 633b
000001b0: 2836 c2bd d09d 6dbc 5e4b 9ebd 0840 6cbd
000001c0: a44c 1bbd 58e5 973c fc55 dcbd d807 cd3d
000001d0: 8413 c0bd 2cec c7bd 6017 d0bb 64b5 eabd
000001e0: 58df 273d 1294 a13d 901d 77bd 1490 d83d
000001f0: 0002 553c 2c22 ffbd c423 95bd 74b9 f73d
00000200: 0063 f1bd 98d3 c6bd 3cf1 e93d 341b ee3d
00000210: 84d1 063d f48f 9dbd e034 fd3b fc83 b13d
00000220: 8073 9a3d 3062 25bd 0816 36bd 384c 21bd
00000230: 606d e93b b071 8ebd 7c4f 4b3d a019 ec3b
00000240: faa2 ee3d 3e47 ea3d 2cf4 a83d c0af 71bb
00000250: 78d0 233d 94d2 513d 54b8 393d 4658 c63d
00000260: be6b 82bd 24a2 723d 1023 903d 401e 67bc
00000270: e24c 96bd a6af 99bd a847 d8bc 8ef1 a03d
00000280: 8038 8abc c425 973d 0464 80bd eee6 c83d
00000290: f47c 763d b8ea 82bc 6c7a 933d 56c2 d83d
000002a0: c8ea 44bd 90d2 683c aa56 a43d 2651 b93d
000002b0: 2af1 913d 8076 81bd 309d 723d 20d0 23bd
000002c0: 20f3 f3bc 9cbd f13d 20a7 8dbc b25d c43d
000002d0: c843 35bd f2ff c1bd 2029 5bbc d81a a33d
000002e0: 3076 4e3d a8ad f0bc 7099 7b3c 6210 b1bd
000002f0: 40a2 563b a0b0 6b3c 20f0 0c3d 7e18 85bd
00000300: 841d d63d 00cd a13c 2807 21bd c8b2 59bd
00000310: d08d 7e3d ec9e a63d 0650 853d a483 593d
00000320: a08d ba3c c8ca 8abc 18d5 c93d 88a6 bcbd
00000330: baa4 b8bd e497 d8bd c427 cbbd 982b ecbc
00000340: ae39 a7bd f010 30bc 04fb bfbd ec76 573d
00000350: e077 2e3c 1097 92bc b076 dfbd f882 cd3d
00000360: f033 943d 707b ad3d 0080 29ba 4cdf 34bd
00000370: ea6b 993d 8809 b33c 823a 83bd b851 1cbd
00000380: 4e07 853d 6cad d0bd 98e3 adbd 6070 4a3d
00000390: c052 8ebc 2c42 6fbd a8db c63d 3a9d ef3d
000003a0: 50be 68bc 18ab ed3c d6e2 b9bd ea4f c4bd
000003b0: 0660 8abd 7e34 e93d 10fc 963d fc92 f7bd
000003c0: dc86 bb3d 4828 bd3c 6cb7 a7bd 70af 873c
000003d0: c84a 48bd c6f6 afbd 54e0 5dbd c488 e53d
000003e0: 188f 0bbd c82a e93c b66f 91bd 4e6e d73d
000003f0: 2ab0 bdbd 08d3 e0bd b0fe 6c3c a8a3 41bd
0.021290556 -0.097785026 0.05913852 -0.021445781 -0.0064077377 0.02321814 0.123285696 0.07063909
0.051912025 -0.07259439 0.04128906 0.028209582 0.09896329 -0.09665303 -0.030601323 -0.06856857
-0.06784676 0.10962936 0.033009782 0.0035302043 -0.050717562 0.067079395 -0.047131002 0.02967015
-0.09091996 0.08492617 -0.011366129 0.08079994 0.03584659 -0.032059714 0.06217988 -0.09708546
0.036260724 -0.12206648 -0.1105555 0.01864864 0.025255889 0.07869764 -0.026629448 -0.09814708
-0.07061343 0.008742809 0.047023952 -0.018860236 0.011219546 0.098391354 -0.0982258 -0.0073468685
0.044069618 -0.031933576 0.031130865 0.11113508 0.11301437 -0.08768298 0.031232074 0.013810068
-0.012502253 0.005613476 0.012587339 0.02120556 -0.019878492 0.09390044 -0.07024273 0.0463773
0.055255562 0.09447999 -0.034551784 -0.10671531 -0.023048297 -0.11431956 0.013790935 -0.12176919
0.049394816 0.02590634 -0.07190196 -0.09877847 0.08325742 0.09596607 -0.004967466 0.006204009
-0.092166334 0.11116895 0.03965494 -0.08170985 0.087983966 0.029009447 0.08947097 -0.028562635
-0.027829751 0.062650636 -0.104173675 -0.05595909 -0.013453215 0.051162913 0.034683406 -0.05658774
-0.101006344 -0.104117855 0.059218094 -0.10820928 -0.02135709 -0.08598372 0.041848868 0.010700047
0.0042270273 0.09178874 0.060420692 0.0034694672 -0.09482986 -0.014502957 -0.07729219 -0.057678252
-0.037914887 0.018541977 -0.10758588 0.10011262 -0.09378722 -0.09761843 -0.0063504428 -0.11460379
0.04098448 0.0788957 -0.060330927 0.10574356 0.013000965 -0.1245769 -0.072822124 0.12095919
-0.11786461 -0.09708327 0.11422965 0.11626282 0.032914653 -0.076934725 0.0077272505 0.08667752
0.07541561 -0.040376842 -0.044454604 -0.03937933 0.007123634 -0.06955278 0.04963635 0.007205203
0.11652179 0.114393696 0.08249697 -0.0036878437 0.039993733 0.051226214 0.045341805 0.096848056
-0.063682064 0.05923666 0.07037938 -0.014106333 -0.07338883 -0.075042054 -0.026401356 0.07858573
-0.016872644 0.0738025 -0.062690765 0.09809671 0.06017776 -0.015981063 0.072010845 0.10583942
-0.048075467 0.014210358 0.08024342 0.09048681 0.071260765 -0.0632143 0.059231937 -0.039993405
-0.029779017 0.11803743 -0.017291605 0.095881835 -0.044254094 -0.09472646 -0.013376504 0.079641044
0.05040568 -0.02937968 0.015356407 -0.08645703 0.0032750517 0.014385372 0.03440869 -0.06498812
0.104548484 0.019751072 -0.039313465 -0.053149015 0.06214696 0.08135781 0.06509404 0.053104058
0.02277261 -0.016942397 0.098550975 -0.09211451 -0.09015794 -0.10575846 -0.09919694 -0.02882938
-0.081652984 -0.010746226 -0.09374049 0.052603647 0.010648698 -0.017894298 -0.1091131 0.10034746
0.07236469 0.084708095 -0.0006465912 -0.044158265 0.07491286 0.02185513 -0.06407644 -0.03816387
0.06495534 -0.101893276 -0.08490676 0.049423575 -0.017373443 -0.058412716 0.09709865 0.116999105
-0.01420553 0.029012248 -0.09076469 -0.09585555 -0.06756596 0.11386965 0.07372296 -0.12088582
0.09156582 0.023090497 -0.08189282 0.016563147 -0.048899442 -0.0859199 -0.054169014 0.112077266
-0.03407201 0.028462783 -0.07101385 0.10519086 -0.09262116 -0.10977751 0.014465019 -0.047275215

net.3.bias f4 [64]
00000000: 605f d33b f8f3 b0bc 24ed bb3d 00a4 8f3a
00000010: 8070 a5bb 20bd 1cbc 6439 2b3d fc0f 62bd
00000020: a2aa cf3d 7a3c a83d a860 563d dee0 f2bd
00000030: 2aca a13d d07b 91bd 6001 413c fcf9 c7bd
00000040: 846a cebd 743c 93bd c28b cdbd 504a 523c
00000050: a0bb 853d d0c5 87bd 3400 b9bd 900b 2f3d
00000060: 9e5c b1bd 28ef 0b3d 7419 f23d 9a88 c2bd
00000070: 8c87 5fbd 4816 c43d 506d efbd 08cd da3d
00000080: 18dc c2bd 5632 bc3d 28d6 883c a0e4 603d
00000090: c855 dabc c08a 773b a8d3 5ebd a00c a2bb
000000a0: c0fe f9bb ce43 f5bd 62ff 8f3d 6283 bbbd
000000b0: accb 85bd ea0a bb3d 2cad 423d 2016 ea3d
000000c0: b4f4 79bd fcb1 eb3d 08eb 13bd 9889 e1bc
000000d0: 8404 9f3d 6494 5b3d 7251 bc3d 88c1 ecbd
000000e0: f8d1 a73c 5819 72bd cae4 8bbd 3042 653d
000000f0: 3cef 3e3d d45e f8bd 08cd c7bd 3aa7 b23d
0.0064505786 -0.021600708 0.0917609 0.001095891 -0.0050488114 -0.009566575 0.04180278 -0.055191025
0.101399675 0.0821466 0.052338272 -0.11859296 0.07899888 -0.071036935 0.011780113 -0.097644776
-0.1007891 -0.07189265 -0.10036422 0.0128351 0.06529927 -0.066295266 -0.09033242 0.042735636
-0.086602435 0.034163624 0.11821261 -0.09498711 -0.054572627 0.09574562 -0.116907716 0.10683638
-0.09514636 0.09189288 0.01670368 0.054905534 -0.026652232 0.003777191 -0.05440107 -0.0049453527
-0.0076292455 -0.11975823 0.07031132 -0.09155919 -0.06532988 0.09132941 0.04752843 0.11430001
-0.061024383 0.11508557 -0.036112815 -0.02753143 0.07764533 0.053608313 0.09195222 -0.11560351
0.020485863 -0.0591062 -0.068307474 0.055971324 0.04661487 -0.12127462 -0.097559035 0.08723302

net.6.weight f4 [1, 64]
00000000: 7c19 1cbd 38b7 e13d 0abf f0bd 40e5 873d
00000010: 18da 1cbd d67b 89bd 5871 e5bd f809 5c3d
00000020: ca09 95bd c0c3 133b 2405 ea3d 0e6b bf3d
00000030: c84f 943d 906e f4bd 2eb3 b7bd dca2 d1bd
00000040: 18b7 813c 28ea 433d 0010 cdba 602b 94bc
00000050: 4c8c fa3d a61a 87bd 6011 563d b467 b7bd
00000060: 101d 4bbd e6b5 9cbd 1c8e 27bd 24fa 3dbd
00000070: e873 3c3d 8065 163d 4899 f0bd 403f c13d
00000080: 581b 9a3d f418 2c3d 8c0d 0e3d a6dc 8c3d
00000090: d45b e2bd 5452 833d 10b8 a03d fcb7 563d
000000a0: d8de d7bd acae 8abd c0bd 723d 4808 483d
000000b0: 0010 d1b8 92ab e8bd 7a8d d3bd 504d 20bc
000000c0: 8864 adbc 720d b0bd 2422 dc3d 70c3 bb3c
000000d0: dcfe b23d 7875 6b3d 68f8 093d e0f1 79bc
000000e0: 384f 943c d4a7 c4bd e821 9d3c 102a 243c
000000f0: 3003 d4bc 0c67 303d 0ad3 c7bd 00fa 41bd
-0.03811024 0.11021274 -0.11755188 0.06635523 -0.038293928 -0.06713073 -0.11203259 0.053720444
-0.07277258 0.0022547096 0.11426762 0.09346591 0.072417796 -0.119351506 -0.08969723 -0.10236141
0.015834376 0.04783073 -0.0015645027 -0.018087089 0.12233791 -0.0659688 0.052262664 -0.08955327
-0.049588263 -0.07651882 -0.04090701 -0.04638113 0.046008974 0.03671789 -0.11747986 0.09435892
0.07524747 0.042015985 0.034680888 0.06878023 -0.11052671 0.06412187 0.07847607 0.052421555
-0.10540551 -0.06771597 0.05926299 0.048836023 -9.968877e-05 -0.113608494 -0.10329719 -0.009784058
-0.021166101 -0.085963145 0.10748699 0.02292034 0.08740017 0.057485074 0.033684164 -0.015255421
0.01810418 -0.09602323 0.019181207 0.010019794 -0.025880426 0.043067023 -0.097570494 -0.04735756
